…
sition_in_test='c', no_softmax_in_test=False, no_cuda=False, n_threads=16, checkpoint=1, no_hflip=False, norm_value=1, model='mobilenet', version=1.1, model_depth=18, resnet_shortcut='B', wide_resnet_k=2, resnext_cardinality=32, groups=3, width_mult=0.5, manual_seed=1, scales=[1.0, 0.84089641525, 0.7071067811803005, 0.5946035574934808, 0.4999999999911653], arch='mobilenet', mean=[114.7748, 107.7354, 99.475], std=[38.7568578, 37.88248729, 40.02898126])
Total number of trainable parameters:  879486
DataParallel(
  (module): MobileNet(
    (features): Sequential(
      (0): Sequential(
        (0): Conv3d(3, 16, kernel_size=(3, 3, 3), stride=(1, 2, 2), padding=(1, 1, 1), bias=False)
        (1): BatchNorm3d(16, eps=1e-05, momentum=0.1, affine=True, track_running_stats=True)
        (2): ReLU(inplace=True)
      )
      (1): Block(
        (conv1): Conv3d(16, 16, kernel_size=(3, 3, 3), stride=(2, 2, 2), padding=(1, 1, 1), groups=16, bias=False)
        (bn1): BatchNorm3d(16, eps=1e-05, momentum=0.1, affine=True, track_running_stats=True)
        (conv2): Conv3d(16, 32, kernel_size=(1, 1, 1), stride=(1, 1, 1), bias=False)
        (bn2): BatchNorm3d(32, eps=1e-05, momentum=0.1, affine=True, track_running_stats=True)
      )
      (2): Block(
        (conv1): Conv3d(32, 32, kernel_size=(3, 3, 3), stride=(2, 2, 2), padding=(1, 1, 1), groups=32, bias=False)
        (bn1): BatchNorm3d(32, eps=1e-05, momentum=0.1, affine=True, track_running_stats=True)
        (conv2): Conv3d(32, 64, kernel_size=(1, 1, 1), stride=(1, 1, 1), bias=False)
        (bn2): BatchNorm3d(64, eps=1e-05, momentum=0.1, affine=True, track_running_stats=True)
      )
      (3): Block(
        (conv1): Conv3d(64, 64, kernel_size=(3, 3, 3), stride=(1, 1, 1), padding=(1, 1, 1), groups=64, bias=False)
        (bn1): BatchNorm3d(64, eps=1e-05, momentum=0.1, affine=True, track_running_stats=True)
        (conv2): Conv3d(64, 64, kernel_size=(1, 1, 1), stride=(1, 1, 1), bias=False)
        (bn2): BatchNorm3d(64, eps=1e-05, momentum=0.1, affine=True, track_running_stats=True)
      )
      (4): Block(
        (conv1): Conv3d(64, 64, kernel_size=(3, 3, 3), stride=(2, 2, 2), padding=(1, 1, 1), groups=64, bias=False)
        (bn1): BatchNorm3d(64, eps=1e-05, momentum=0.1, affine=True, track_running_stats=True)
        (conv2): Conv3d(64, 128, kernel_size=(1, 1, 1), stride=(1, 1, 1), bias=False)
        (bn2): BatchNorm3d(128, eps=1e-05, momentum=0.1, affine=True, track_running_stats=True)
      )
      (5): Block(
        (conv1): Conv3d(128, 128, kernel_size=(3, 3, 3), stride=(1, 1, 1), padding=(1, 1, 1), groups=128, bias=False)
        (bn1): BatchNorm3d(128, eps=1e-05, momentum=0.1, affine=True, track_running_stats=True)
        (conv2): Conv3d(128, 128, kernel_size=(1, 1, 1), stride=(1, 1, 1), bias=False)
        (bn2): BatchNorm3d(128, eps=1e-05, momentum=0.1, affine=True, track_running_stats=True)
      )
      (6): Block(
        (conv1): Conv3d(128, 128, kernel_size=(3, 3, 3), stride=(2, 2, 2), padding=(1, 1, 1), groups=128, bias=False)
        (bn1): BatchNorm3d(128, eps=1e-05, momentum=0.1, affine=True, track_running_stats=True)
        (conv2): Conv3d(128, 256, kernel_size=(1, 1, 1), stride=(1, 1, 1), bias=False)
        (bn2): BatchNorm3d(256, eps=1e-05, momentum=0.1, affine=True, track_running_stats=True)
      )
      (7): Block(
        (conv1): Conv3d(256, 256, kernel_size=(3, 3, 3), stride=(1, 1, 1), padding=(1, 1, 1), groups=256, bias=False)
        (bn1): BatchNorm3d(256, eps=1e-05, momentum=0.1, affine=True, track_running_stats=True)
        (conv2): Conv3d(256, 256, kernel_size=(1, 1, 1), stride=(1, 1, 1), bias=False)
        (bn2): BatchNorm3d(256, eps=1e-05, momentum=0.1, affine=True, track_running_stats=True)
      )
      (8): Block(
        (conv1): Conv3d(256, 256, kernel_size=(3, 3, 3), stride=(1, 1, 1), padding=(1, 1, 1), groups=256, bias=False)
        (bn1): BatchNorm3d(256, eps=1e-05, momentum=0.1, affine=True, track_running_stats=True)
        (conv2): Conv3d(256, 256, kernel_size=(1, 1, 1), stride=(1, 1, 1), bias=False)
        (bn2): BatchNorm3d(256, eps=1e-05, momentum=0.1, affine=True, track_running_stats=True)
      )
      (9): Block(
        (conv1): Conv3d(256, 256, kernel_size=(3, 3, 3), stride=(1, 1, 1), padding=(1, 1, 1), groups=256, bias=False)
        (bn1): BatchNorm3d(256, eps=1e-05, momentum=0.1, affine=True, track_running_stats=True)
        (conv2): Conv3d(256, 256, kernel_size=(1, 1, 1), stride=(1, 1, 1), bias=False)
        (bn2): BatchNorm3d(256, eps=1e-05, momentum=0.1, affine=True, track_running_stats=True)
      )
      (10): Block(
        (conv1): Conv3d(256, 256, kernel_size=(3, 3, 3), stride=(1, 1, 1), padding=(1, 1, 1), groups=256, bias=False)
        (bn1): BatchNorm3d(256, eps=1e-05, momentum=0.1, affine=True, track_running_stats=True)
        (conv2): Conv3d(256, 256, kernel_size=(1, 1, 1), stride=(1, 1, 1), bias=False)
        (bn2): BatchNorm3d(256, eps=1e-05, momentum=0.1, affine=True, track_running_stats=True)
      )
      (11): Block(
        (conv1): Conv3d(256, 256, kernel_size=(3, 3, 3), stride=(1, 1, 1), padding=(1, 1, 1), groups=256, bias=False)
        (bn1): BatchNorm3d(256, eps=1e-05, momentum=0.1, affine=True, track_running_stats=True)
        (conv2): Conv3d(256, 256, kernel_size=(1, 1, 1), stride=(1, 1, 1), bias=False)
        (bn2): BatchNorm3d(256, eps=1e-05, momentum=0.1, affine=True, track_running_stats=True)
      )
      (12): Block(
        (conv1): Conv3d(256, 256, kernel_size=(3, 3, 3), stride=(1, 1, 1), padding=(1, 1, 1), groups=256, bias=False)
        (bn1): BatchNorm3d(256, eps=1e-05, momentum=0.1, affine=True, track_running_stats=True)
        (conv2): Conv3d(256, 512, kernel_size=(1, 1, 1), stride=(1, 1, 1), bias=False)
        (bn2): BatchNorm3d(512, eps=1e-05, momentum=0.1, affine=True, track_running_stats=True)
      )
      (13): Block(
        (conv1): Conv3d(512, 512, kernel_size=(3, 3, 3), stride=(1, 1, 1), padding=(1, 1, 1), groups=512, bias=False)
        (bn1): BatchNorm3d(512, eps=1e-05, momentum=0.1, affine=True, track_running_stats=True)
        (conv2): Conv3d(512, 512, kernel_size=(1, 1, 1), stride=(1, 1, 1), bias=False)
        (bn2): BatchNorm3d(512, eps=1e-05, momentum=0.1, affine=True, track_running_stats=True)
      )
    )
    (classifier): Sequential(
      (0): Dropout(p=0.2, inplace=False)
      (1): Linear(in_features=512, out_features=30, bias=True)
    )
  )
)
loading checkpoint /home/matthew/Efficient-3DCNNs/result_mobilenet_bs8_lr0.1/ucf101_mobilenet_0.5x_RGB_16_best.pth
run
dataset loading [0/136]
/home/matthew/anaconda3/lib/python3.11/site-packages/torchvision/io/image.py:13: UserWarning: Failed to load image Python extension: '/home/matthew/anaconda3/lib/python3.11/site-packages/torchvision/i
…
cale_in_test=1.0, crop_position_in_test='c', no_softmax_in_test=False, no_cuda=False, n_threads=16, checkpoint=1, no_hflip=False, norm_value=1, model='shufflenet', version=1.1, model_depth=18, resnet_shortcut='B', wide_resnet_k=2, resnext_cardinality=32, groups=3, width_mult=0.5, manual_seed=1, scales=[1.0, 0.84089641525, 0.7071067811803005, 0.5946035574934808, 0.4999999999911653], arch='shufflenet', mean=[114.7748, 107.7354, 99.475], std=[38.7568578, 37.88248729, 40.02898126])
Total number of trainable parameters:  271602
DataParallel(
  (module): ShuffleNet(
    (conv1): Sequential(
      (0): Conv3d(3, 12, kernel_size=(3, 3, 3), stride=(1, 2, 2), padding=(1, 1, 1), bias=False)
      (1): BatchNorm3d(12, eps=1e-05, momentum=0.1, affine=True, track_running_stats=True)
      (2): ReLU(inplace=True)
    )
    (maxpool): MaxPool3d(kernel_size=3, stride=2, padding=1, dilation=1, ceil_mode=False)
    (layer1): Sequential(
      (0): Bottleneck(
        (conv1): Conv3d(12, 30, kernel_size=(1, 1, 1), stride=(1, 1, 1), groups=3, bias=False)
        (bn1): BatchNorm3d(30, eps=1e-05, momentum=0.1, affine=True, track_running_stats=True)
        (conv2): Conv3d(30, 30, kernel_size=(3, 3, 3), stride=(2, 2, 2), padding=(1, 1, 1), groups=30, bias=False)
        (bn2): BatchNorm3d(30, eps=1e-05, momentum=0.1, affine=True, track_running_stats=True)
        (conv3): Conv3d(30, 108, kernel_size=(1, 1, 1), stride=(1, 1, 1), groups=3, bias=False)
        (bn3): BatchNorm3d(108, eps=1e-05, momentum=0.1, affine=True, track_running_stats=True)
        (relu): ReLU(inplace=True)
        (shortcut): AvgPool3d(kernel_size=(2, 3, 3), stride=2, padding=(0, 1, 1))
      )
      (1): Bottleneck(
        (conv1): Conv3d(120, 30, kernel_size=(1, 1, 1), stride=(1, 1, 1), groups=3, bias=False)
        (bn1): BatchNorm3d(30, eps=1e-05, momentum=0.1, affine=True, track_running_stats=True)
        (conv2): Conv3d(30, 30, kernel_size=(3, 3, 3), stride=(1, 1, 1), padding=(1, 1, 1), groups=30, bias=False)
        (bn2): BatchNorm3d(30, eps=1e-05, momentum=0.1, affine=True, track_running_stats=True)
        (conv3): Conv3d(30, 120, kernel_size=(1, 1, 1), stride=(1, 1, 1), groups=3, bias=False)
        (bn3): BatchNorm3d(120, eps=1e-05, momentum=0.1, affine=True, track_running_stats=True)
        (relu): ReLU(inplace=True)
      )
      (2): Bottleneck(
        (conv1): Conv3d(120, 30, kernel_size=(1, 1, 1), stride=(1, 1, 1), groups=3, bias=False)
        (bn1): BatchNorm3d(30, eps=1e-05, momentum=0.1, affine=True, track_running_stats=True)
        (conv2): Conv3d(30, 30, kernel_size=(3, 3, 3), stride=(1, 1, 1), padding=(1, 1, 1), groups=30, bias=False)
        (bn2): BatchNorm3d(30, eps=1e-05, momentum=0.1, affine=True, track_running_stats=True)
        (conv3): Conv3d(30, 120, kernel_size=(1, 1, 1), stride=(1, 1, 1), groups=3, bias=False)
        (bn3): BatchNorm3d(120, eps=1e-05, momentum=0.1, affine=True, track_running_stats=True)
        (relu): ReLU(inplace=True)
      )
      (3): Bottleneck(
        (conv1): Conv3d(120, 30, kernel_size=(1, 1, 1), stride=(1, 1, 1), groups=3, bias=False)
        (bn1): BatchNorm3d(30, eps=1e-05, momentum=0.1, affine=True, track_running_stats=True)
        (conv2): Conv3d(30, 30, kernel_size=(3, 3, 3), stride=(1, 1, 1), padding=(1, 1, 1), groups=30, bias=False)
        (bn2): BatchNorm3d(30, eps=1e-05, momentum=0.1, affine=True, track_running_stats=True)
        (conv3): Conv3d(30, 120, kernel_size=(1, 1, 1), stride=(1, 1, 1), groups=3, bias=False)
        (bn3): BatchNorm3d(120, eps=1e-05, momentum=0.1, affine=True, track_running_stats=True)
        (relu): ReLU(inplace=True)
      )
    )
    (layer2): Sequential(
      (0): Bottleneck(
        (conv1): Conv3d(120, 60, kernel_size=(1, 1, 1), stride=(1, 1, 1), groups=3, bias=False)
        (bn1): BatchNorm3d(60, eps=1e-05, momentum=0.1, affine=True, track_running_stats=True)
        (conv2): Conv3d(60, 60, kernel_size=(3, 3, 3), stride=(2, 2, 2), padding=(1, 1, 1), groups=60, bias=False)
        (bn2): BatchNorm3d(60, eps=1e-05, momentum=0.1, affine=True, track_running_stats=True)
        (conv3): Conv3d(60, 120, kernel_size=(1, 1, 1), stride=(1, 1, 1), groups=3, bias=False)
        (bn3): BatchNorm3d(120, eps=1e-05, momentum=0.1, affine=True, track_running_stats=True)
        (relu): ReLU(inplace=True)
        (shortcut): AvgPool3d(kernel_size=(2, 3, 3), stride=2, padding=(0, 1, 1))
      )
      (1): Bottleneck(
        (conv1): Conv3d(240, 60, kernel_size=(1, 1, 1), stride=(1, 1, 1), groups=3, bias=False)
        (bn1): BatchNorm3d(60, eps=1e-05, momentum=0.1, affine=True, track_running_stats=True)
        (conv2): Conv3d(60, 60, kernel_size=(3, 3, 3), stride=(1, 1, 1), padding=(1, 1, 1), groups=60, bias=False)
        (bn2): BatchNorm3d(60, eps=1e-05, momentum=0.1, affine=True, track_running_stats=True)
        (conv3): Conv3d(60, 240, kernel_size=(1, 1, 1), stride=(1, 1, 1), groups=3, bias=False)
        (bn3): BatchNorm3d(240, eps=1e-05, momentum=0.1, affine=True, track_running_stats=True)
        (relu): ReLU(inplace=True)
      )
      (2): Bottleneck(
        (conv1): Conv3d(240, 60, kernel_size=(1, 1, 1), stride=(1, 1, 1), groups=3, bias=False)
        (bn1): BatchNorm3d(60, eps=1e-05, momentum=0.1, affine=True, track_running_stats=True)
        (conv2): Conv3d(60, 60, kernel_size=(3, 3, 3), stride=(1, 1, 1), padding=(1, 1, 1), groups=60, bias=False)
        (bn2): BatchNorm3d(60, eps=1e-05, momentum=0.1, affine=True, track_running_stats=True)
        (conv3): Conv3d(60, 240, kernel_size=(1, 1, 1), stride=(1, 1, 1), groups=3, bias=False)
        (bn3): BatchNorm3d(240, eps=1e-05, momentum=0.1, affine=True, track_running_stats=True)
        (relu): ReLU(inplace=True)
      )
      (3): Bottleneck(
        (conv1): Conv3d(240, 60, kernel_size=(1, 1, 1), stride=(1, 1, 1), groups=3, bias=False)
        (bn1): BatchNorm3d(60, eps=1e-05, momentum=0.1, affine=True, track_running_stats=True)
        (conv2): Conv3d(60, 60, kernel_size=(3, 3, 3), stride=(1, 1, 1), padding=(1, 1, 1), groups=60, bias=False)
        (bn2): BatchNorm3d(60, eps=1e-05, momentum=0.1, affine=True, track_running_stats=True)
        (conv3): Conv3d(60, 240, kernel_size=(1, 1, 1), stride=(1, 1, 1), groups=3, bias=False)
        (bn3): BatchNorm3d(240, eps=1e-05, momentum=0.1, affine=True, track_running_stats=True)
        (relu): ReLU(inplace=True)
      )
      (4): Bottleneck(
        (conv1): Conv3d(240, 60, kernel_size=(1, 1, 1), stride=(1, 1, 1), groups=3, bias=False)
        (bn1): BatchNorm3d(60, eps=1e-05, momentum=0.1, affine=True, track_running_stats=True)
        (conv2): Conv3d(60, 60, kernel_size=(3, 3, 3), stride=(1, 1, 1), padding=(1, 1, 1), groups=60, bias=False)
        (bn2): BatchNorm3d(60, eps=1e-05, momentum=0.1, affine=True, track_running_stats=True)
        (conv3): Conv3d(60, 240, kernel_size=(1, 1, 1), stride=(1, 1, 1), groups=3, bias=False)
        (bn3): BatchNorm3d(240, eps=1e-05, momentum=0.1, affine=True, track_running_stats=True)
        (relu): ReLU(inplace=True)
      )
      (5): Bottleneck(
        (conv1): Conv3d(240, 60, kernel_size=(1, 1, 1), stride=(1, 1, 1), groups=3, bias=False)
        (bn1): BatchNorm3d(60, eps=1e-05, momentum=0.1, affine=True, track_running_stats=True)
        (conv2): Conv3d(60, 60, kernel_size=(3, 3, 3), stride=(1, 1, 1), padding=(1, 1, 1), groups=60, bias=False)
        (bn2): BatchNorm3d(60, eps=1e-05, momentum=0.1, affine=True, track_running_stats=True)
        (conv3): Conv3d(60, 240, kernel_size=(1, 1, 1), stride=(1, 1, 1), groups=3, bias=False)
        (bn3): BatchNorm3d(240, eps=1e-05, momentum=0.1, affine=True, track_running_stats=True)
        (relu): ReLU(inplace=True)
      )
      (6): Bottleneck(
        (conv1): Conv3d(240, 60, kernel_size=(1, 1, 1), stride=(1, 1, 1), groups=3, bias=False)
        (bn1): BatchNorm3d(60, eps=1e-05, momentum=0.1, affine=True, track_running_stats=True)
        (conv2): Conv3d(60, 60, kernel_size=(3, 3, 3), stride=(1, 1, 1), padding=(1, 1, 1), groups=60, bias=False)
        (bn2): BatchNorm3d(60, eps=1e-05, momentum=0.1, affine=True, track_running_stats=True)
        (conv3): Conv3d(60, 240, kernel_size=(1, 1, 1), stride=(1, 1, 1), groups=3, bias=False)
        (bn3): BatchNorm3d(240, eps=1e-05, momentum=0.1, affine=True, track_running_stats=True)
        (relu): ReLU(inplace=True)
      )
      (7): Bottleneck(
        (conv1): Conv3d(240, 60, kernel_size=(1, 1, 1), stride=(1, 1, 1), groups=3, bias=False)
        (bn1): BatchNorm3d(60, eps=1e-05, momentum=0.1, affine=True, track_running_stats=True)
        (conv2): Conv3d(60, 60, kernel_size=(3, 3, 3), stride=(1, 1, 1), padding=(1, 1, 1), groups=60, bias=False)
        (bn2): BatchNorm3d(60, eps=1e-05, momentum=0.1, affine=True, track_running_stats=True)
        (conv3): Conv3d(60, 240, kernel_size=(1, 1, 1), stride=(1, 1, 1), groups=3, bias=False)
        (bn3): BatchNorm3d(240, eps=1e-05, momentum=0.1, affine=True, track_running_stats=True)
        (relu): ReLU(inplace=True)
      )
    )
    (layer3): Sequential(
      (0): Bottleneck(
        (conv1): Conv3d(240, 120, kernel_size=(1, 1, 1), stride=(1, 1, 1), groups=3, bias=False)
        (bn1): BatchNorm3d(120, eps=1e-05, momentum=0.1, affine=True, track_running_stats=True)
        (conv2): Conv3d(120, 120, kernel_size=(3, 3, 3), stride=(2, 2, 2), padding=(1, 1, 1), groups=120, bias=False)
        (bn2): BatchNorm3d(120, eps=1e-05, momentum=0.1, affine=True, track_running_stats=True)
        (conv3): Conv3d(120, 240, kernel_size=(1, 1, 1), stride=(1, 1, 1), groups=3, bias=False)
        (bn3): BatchNorm3d(240, eps=1e-05, momentum=0.1, affine=True, track_running_stats=True)
        (relu): ReLU(inplace=True)
        (shortcut): AvgPool3d(kernel_size=(2, 3, 3), stride=2, padding=(0, 1, 1))
      )
      (1): Bottleneck(
        (conv1): Conv3d(480, 120, kernel_size=(1, 1, 1), stride=(1, 1, 1), groups=3, bias=False)
        (bn1): BatchNorm3d(120, eps=1e-05, momentum=0.1, affine=True, track_running_stats=True)
        (conv2): Conv3d(120, 120, kernel_size=(3, 3, 3), stride=(1, 1, 1), padding=(1, 1, 1), groups=120, bias=False)
        (bn2): BatchNorm3d(120, eps=1e-05, momentum=0.1, affine=True, track_running_stats=True)
        (conv3): Conv3d(120, 480, kernel_size=(1, 1, 1), stride=(1, 1, 1), groups=3, bias=False)
        (bn3): BatchNorm3d(480, eps=1e-05, momentum=0.1, affine=True, track_running_stats=True)
        (relu): ReLU(inplace=True)
      )
      (2): Bottleneck(
        (conv1): Conv3d(480, 120, kernel_size=(1, 1, 1), stride=(1, 1, 1), groups=3, bias=False)
        (bn1): BatchNorm3d(120, eps=1e-05, momentum=0.1, affine=True, track_running_stats=True)
        (conv2): Conv3d(120, 120, kernel_size=(3, 3, 3), stride=(1, 1, 1), padding=(1, 1, 1), groups=120, bias=False)
        (bn2): BatchNorm3d(120, eps=1e-05, momentum=0.1, affine=True, track_running_stats=True)
        (conv3): Conv3d(120, 480, kernel_size=(1, 1, 1), stride=(1, 1, 1), groups=3, bias=False)
        (bn3): BatchNorm3d(480, eps=1e-05, momentum=0.1, affine=True, track_running_stats=True)
        (relu): ReLU(inplace=True)
      )
      (3): Bottleneck(
        (conv1): Conv3d(480, 120, kernel_size=(1, 1, 1), stride=(1, 1, 1), groups=3, bias=False)
        (bn1): BatchNorm3d(120, eps=1e-05, momentum=0.1, affine=True, track_running_stats=True)
        (conv2): Conv3d(120, 120, kernel_size=(3, 3, 3), stride=(1, 1, 1), padding=(1, 1, 1), groups=120, bias=False)
        (bn2): BatchNorm3d(120, eps=1e-05, momentum=0.1, affine=True, track_running_stats=True)
        (conv3): Conv3d(120, 480, kernel_size=(1, 1, 1), stride=(1, 1, 1), groups=3, bias=False)
        (bn3): BatchNorm3d(480, eps=1e-05, momentum=0.1, affine=True, track_running_stats=True)
        (relu): ReLU(inplace=True)
      )
    )
    (classifier): Sequential(
      (0): Dropout(p=0.2, inplace=False)
      (1): Linear(in_features=480, out_features=30, bias=True)
    )
  )
)
loading checkpoint /home/matthew/Efficient-3DCNNs/results_shufflenet_bs8_lr0.1/ucf101_shufflenet_0.5x_RGB_16_best.pth
run
dataset loading [0/136]
/home/matthew/anaconda3/lib/python3.11/site-packages/torchvision/io/image.py:13: UserWarning: Failed to load image Python extension: '/home/matthew/anaconda3/lib/python3.11/site-packages/torchvisio
…
